prototypical-networks/results-OM/best_model.pt (torch_old, 473613 bytes, 24 tensors)

weight f4 [64, 1, 3, 3]
-0.2965707 -0.051030505 -0.16719364 -0.07209827 -0.27354836 0.14168297 -0.28077215 -0.035013646
0.13896237 -0.092796415 0.18796858 0.046532422 0.19664508 0.22233872 -0.13772537 0.12575375
-0.13664858 0.109745674 -0.1610551 0.15855154 0.08814194 -0.14320745 -0.15587887 0.10305248
0.30589637 0.14434467 -0.021006983 -0.032320313 0.1994357 -0.23325466 0.11482047 -0.12930097
0.18743159 -0.11580855 0.012794546 0.09315713 0.24124111 -0.07240813 0.29904792 -0.26533622
-0.061915122 -0.32948384 0.024404552 0.08140591 -0.14963558 0.13285236 -0.06410262 -0.2846966
0.2472284 0.18759087 0.18947037 0.27051446 0.10647468 0.19083834 0.28171405 -0.06648718
-0.26372853 -0.17714942 -0.04419426 -0.050464645 -0.0025806238 0.17535347 0.09071055 -0.23167229
-0.08226452 -0.05126015 0.2195972 -0.11792038 -0.12526922 -0.06365605 -0.07953046 -0.073680334
-0.3317291 0.29655474 0.15271813 -0.13688694 -0.19542979 -0.0048782346 0.22033225 -0.2032772
-0.121988624 0.16459775 -0.19961981 -0.035554834 -0.25009432 0.31675288 0.17447872 -0.29672056
-0.17959785 0.123513356 0.017192269 0.07872241 -0.2653972 -0.17112699 0.13540232 -0.25653705
-0.08371228 0.14386016 0.191928 0.02315312 0.0954439 0.14552906 -0.03688664 -0.07930484
0.26720223 0.31438994 0.1707215 -0.15428813 -0.29090312 -0.33125705 -0.009209125 -0.115540005
-0.08261922 -0.04342238 0.3096089 0.32177517 -0.038969547 -0.10203524 0.16933282 -0.04065465
-0.3205273 0.09871589 0.31447804 -0.26069072 -0.09284921 0.0814628 -0.25554073 -0.25644726
0.25953 -0.12711957 0.1964255 0.02211753 0.10106461 -0.22114344 -0.07982685 0.2189461
0.14215276 -0.10378962 0.031002572 0.25402004 -0.29156116 0.21962444 -0.10241431 -0.0789348
0.1383135 -0.2962928 -0.057179116 0.33368957 0.11726364 -0.13375013 -0.07767795 0.24189898
0.12509325 0.22405726 -0.21283355 0.10425157 0.060922414 0.06843053 0.29663187 0.17992674
0.23719949 0.1627565 0.14762202 -0.051776625 -0.28057647 -0.27623427 -0.21157657 -0.21097992
0.15783383 0.11959455 -0.1007513 -0.26126823 0.3202864 0.23000133 0.17550176 0.33084252
-0.17971742 -0.19004795 -0.1979255 -0.03971274 -0.318875 0.28104347 -0.027152011 0.17281036
-0.19650577 -0.061974533 0.010365618 -0.110195644 0.26992077 -0.16210872 0.107355535 -0.23052071
-0.03617557 -0.09057475 0.13890055 0.22475451 0.06415126 -0.045707874 -0.09980243 0.2690586
-0.06940253 0.234389 -0.14889465 0.27779284 0.31699318 0.24074948 0.19449632 0.11228551
-0.18567795 -0.0011659028 0.0966408 -0.09434291 0.081547424 0.19678178 -0.30764055 -0.29798782
-0.18849164 0.04301371 -0.07721878 0.07617233 -0.09415877 -0.2318674 0.026368564 0.21718803
-0.20250677 0.29363835 0.06333818 0.31767982 -0.31932542 -0.3104994 0.10116635 -0.3262691
-0.27628264 0.16714957 0.15945269 -0.31468707 0.22587606 -0.072654724 0.26061627 -0.19078165
-0.29470846 -0.22058128 -0.0379284 -0.30776158 -0.009576382 -0.15781648 -0.09072772 0.004331844
0.008198725 -0.316499 0.18096946 -0.21618749 0.20979883 0.28507933 -0.10280093 0.0342955
00000000: 1dd8 97be 5d05 51bd cf34 2bbe 42a8 93bd
00000010: 880e 8cbe 5715 113e 5ec1 8fbe 786a 0fbd
00000020: 274c 0e3e 0c0c bebd d67a 403e c898 3e3d
00000030: 545d 493e c3ac 633e e107 0dbe 97c5 003e
00000040: 9bed 0bbe 57c2 e03d a1eb 24be 565b 223e
00000050: c383 b43d f9a4 12be b69e 1fbe 2e0d d33d
00000060: 739e 9c3e 17cf 133e d616 acbc 4e62 04bd
00000070: df38 4c3e 4fda 6ebe ff26 eb3d 7967 04be
00000080: 11ee 3f3e 082d edbd 37a0 513c 2ac9 be3d
00000090: e907 773e b74a 94bd cf1c 993e 26da 87be
000000a0: b69a 7dbd 1bb2 a8be 0eec c73c 24b8 a63d
000000b0: 123a 19be 730a 083e 3c48 83bd c1c3 91be
000000c0: 7129 7d3e d217 403e 8504 423e df80 8a3e
000000d0: 660f da3d 206b 433e d33c 903e 6e2a 88bd
000000e0: 6d07 87be a866 35be 0a05 35bd 04b4 4ebd
000000f0: af1f 29bb dc8f 333e 74c6 b93d 803b 6dbe
00000100: 4d7a a8bd 2af6 51bd 17de 603e 3d80 f1bd
00000110: 9346 00be 1a5e 82bd dee0 a2bd b7e5 96bd
00000120: 66d8 a9be 06d6 973e 2462 1c3e 172c 0cbe
00000130: bf1e 48be 99d9 9fbb c79e 613e e627 50be
00000140: 2cd5 f9bd 508c 283e 2369 4cbe f2a1 11bd
00000150: 5d0c 80be 6f2d a23e 8daa 323e c2eb 97be
00000160: 80e8 37be 92f4 fc3d cdd6 8c3c 3739 a13d
00000170: 24e2 87be ea3b 2fbe e8a6 0a3e d358 83be
00000180: 5871 abbd 1450 133e c688 443e 9dab bd3c
00000190: 1778 c33d 9205 153e 7216 17bd 936a a2bd
000001a0: bbce 883e b8f7 a03e 9ed1 2e3e b5fd 1dbe
000001b0: 41f1 94be 869a a9be dfe1 16bc 3da0 ecbd
000001c0: 4434 a9bd aadb 31bd 0f85 9e3e b7bf a43e
000001d0: 889e 1fbd daf7 d0bd 9565 2d3e 7e85 26bd
000001e0: 271c a4be 8e2b ca3d 4403 a13e 4179 85be
000001f0: ba27 bebd f8d5 a63d 3cd6 82be 0e4d 83be
00000200: 1ee1 843e a22b 02be c423 493e d32f b53c
00000210: f6fa ce3d 6d73 62be 427c a3bd 6833 603e
00000220: 7e90 113e a78f d4bd 1bf9 fd3c ea0e 823e
00000230: 8147 95be 3be5 603e 98be d1bd 92a8 a1bd
00000240: 0ea2 0d3e b1b3 97be a634 6abd 5cd9 aa3e
00000250: eb27 f03d cbf5 08be 9e15 9fbd 5eb4 773e
00000260: 7218 003e 446f 653e 0af1 59be d981 d53d
00000270: c889 793d 4e25 8c3d 22e0 973e b73e 383e
00000280: 6ce4 723e a4a9 263e 3a2a 173e ba13 54bd
00000290: b8a7 8fbe 946e 8dbe 87a7 58be 1f0b 58be
000002a0: 319f 213e fded f43d b356 cebd f3c4 85be
000002b0: 94fc a33e 7885 6b3e bcb6 333e 3164 a93e
000002c0: d807 38be ee9b 42be fbac 4abe d3a9 22bd
000002d0: 9643 a3be eee4 8f3e e56d debc 33f5 303e
000002e0: cf38 49be 02d9 7dbd 8ed4 293c 41ae e1bd
000002f0: 0e33 8a3e d4ff 25be 38dd db3d 9f0d 6cbe
00000300: d62c 14bd 417f b9bd f23b 0e3e 0c26 663e
00000310: bc61 833d 2e38 3bbd 3765 ccbd 0cc2 893e
00000320: ea22 8ebd ac03 703e d777 18be dd3a 8e3e
00000330: ee4c a23e 0887 763e 0b2a 473e f2f5 e53d
00000340: 5c22 3ebe 35d1 98ba 9deb c53d db36 c1bd
00000350: 5602 a73d 2a81 493e 1083 9dbe dc91 98be
00000360: f403 41be 252f 303d e124 9ebd 3d00 9c3d
00000370: 50d6 c0bd a66e 6dbe e302 d83c 8a66 5e3e
00000380: ef5d 4fbe c457 963e 73b7 813d eea6 a23e
00000390: 9f7e a3be c7f9 9ebe 4e30 cf3d be0c a7be
000003a0: eb74 8dbe 4229 2b3e 9147 233e aa1e a1be
000003b0: 0e4c 673e 00cc 94bd 7f6f 853e 445c 43be
000003c0: 07e4 96be 0fe0 61be cf5a 1bbd ed92 9dbe
000003d0: 42e6 1cbc a59a 21be 74cf b9bd 24f2 8d3b
000003e0: f253 063c 280c a2be 0f50 393e 4160 5dbe
000003f0: 81d5 563e ebf5 913e 4b89 d2bd 7079 0c3d

bias f4 [64]
-0.118456684 0.28243598 -0.28627157 -0.11313792 0.13692178 0.24186209 -0.2541883 -0.23388596
0.19534059 0.22819968 0.21850969 0.19813819 -0.2830954 0.10975992 -0.012204022 0.050539102
-0.12704964 0.3245034 -0.01640356 -0.22706485 0.1757118 0.00083496183 -0.20773233 -0.146604
-0.21103477 0.064103685 0.07097286 -0.09504656 0.026953112 -0.18142347 -0.3296437 -0.0071018455
0.31955135 -0.24899065 0.071810044 -0.16361776 -0.051736727 0.07817561 -0.16207069 -0.28506336
-0.0045992155 -0.029412512 0.23883837 0.13640618 0.19427699 -0.20783597 -0.31324226 -0.20441861
-0.26934788 -0.013560264 -0.09875842 -0.029757204 -0.09428778 -0.052527614 0.07428374 0.32470974
-0.070737265 0.27243552 0.29703346 0.16083129 -0.090732425 0.08892733 -0.21666303 -0.024886461
00000000: 6b99 f2bd 739b 903e 3092 92be dbb4 e7bd
00000010: 3935 0c3e b2aa 773e f824 82be cd7f 6fbe
00000020: 5d07 483e 2dad 693e 01c1 5f3e bde4 4a3e
00000030: e1f1 90be cfc9 e03d 61f3 47bc 1702 4f3d
00000040: 4d19 02be 4f25 a63e c260 86bc b083 68be
00000050: cbed 333e 57e1 5a3a c9b7 54be 5c1f 16be
00000060: 8019 58be cb48 833d 385a 913d c5a7 c2bd
00000070: c6cc dc3c 13c7 39be 0fc7 a8be 99b6 e8bb
00000080: 3c9c a33e 68f7 7ebe 2511 933d 6a8b 27be
00000090: e4e9 53bd 891a a03d dcf5 25be d3f3 91be
000000a0: 04b5 96bb 82f2 f0bc 0c92 743e 10ae 0b3e
000000b0: 8cf0 463e f4d2 54be 4a61 a0be 1d53 51be
000000c0: f7e7 89be df2b 5ebc db41 cabd 61c5 f3bc
000000d0: f419 c1bd 3227 57bd 1322 983d 5b40 a63e
000000e0: b3de 90bd ab7c 8b3e c514 983e f5b0 243e
000000f0: ecd1 b9bd 881f b63d eadc 5dbe b1de cbbc

weight f4 [64]
0.282053 0.09548017 0.06156085 0.33058202 0.6253554 0.48873672 0.5190597 0.7366109
0.6725423 0.84991634 0.38449287 0.6164594 0.4902783 0.3280096 0.17938867 0.35392633
0.026129542 0.54385126 0.11197715 0.32499722 0.31211665 0.9213157 0.079285406 0.38936767
0.6822578 0.63779795 0.9266929 0.649698 0.78777075 0.2183647 0.80522346 0.50142646
0.46106145 0.27704978 0.6808265 0.7600807 0.1335648 0.104594626 0.6866796 0.046485007
0.04179711 0.8587825 0.64941454 0.5528202 0.4927503 0.69748646 0.14256471 0.92394984
0.42866287 0.5521555 0.032780997 0.5273029 0.18611239 0.78984517 0.031038042 0.9393139
0.3797843 0.32882085 0.48629478 0.103995875 0.6653569 0.922009 0.2784306 0.33340243
00000000: 4069 903e 1b8b c33d 3b27 7c3d 0c42 a93e
00000010: 4b17 203f b33b fa3e 19e1 043f 8892 3c3f
00000020: bb2b 2c3f 1e94 593f 40dc c43e 49d0 1d3f
00000030: c205 fb3e e0f0 a73e aab1 373e d535 b53e
00000040: 9f0d d63c d639 0b3f 4754 e53d 0966 a63e
00000050: c1cd 9f3e 59db 6b3f 6360 a23d 335b c73e
00000060: 72a8 2e3f ba46 233f bf3b 6d3f 9c52 263f
00000070: 58ab 493f ff9a 5f3e 2023 4e3f 7c5d 003f
00000080: 3f10 ec3e 78d9 8d3e a54a 2e3f a694 423f
00000090: 36c5 083e b535 d63d 3cca 2f3f 1067 3e3d
000000a0: 7233 2b3d 2bd9 5b3f 0840 263f a085 0d3f
000000b0: c449 fc3e 798e 323f 7cfc 113e fa87 6c3f
000000c0: b379 db3e 105a 0d3f 5e45 063d 53fd 063f
000000d0: 3f94 3e3e 4b33 4a3f 7e43 fe3c e076 703f
000000e0: 1673 c23e 355b a83e a1fb f83e cafb d43d
000000f0: d454 2a3f c808 6c3f 758e 8e3e b9b3 aa3e

bias f4 [64]
1.7111419e-05 0.016366113 -0.004747212 0.014153161 0.026285471 -0.02456821 0.021856504 -0.0043132594
-0.0067052036 -0.00488403 0.008791213 0.0013606314 -0.008077619 -0.010521135 0.0015830924 -0.01639532
0.008160197 -0.013344708 0.0053075613 -0.009043572 0.03756733 -0.014243369 -0.016169345 0.0015829758
-7.692131e-05 0.0427615 -0.014967348 0.008104717 -0.0058005606 0.0035574983 0.015287707 0.0044665504
-0.004404228 -0.0021052982 0.0169181 -0.010889639 -0.0040574837 -0.014497604 0.009695783 -0.00030142968
-0.009513459 0.0014639795 0.03603985 -0.00019674496 0.005894273 0.013468109 -0.008679799 0.0019184634
0.04215985 -0.010373603 -0.0014771193 0.030094204 -0.011244001 0.0040551126 0.002394561 -0.007877106
-0.0002367214 0.0066257934 0.01549391 0.0031798207 -0.012041426 0.00948859 0.009895247 0.009598137
00000000: 7e8a 8f37 3a12 863c 808e 9bbb a9e2 673c
00000010: a154 d73c 4543 c9bc 690c b33c 3e56 8dbb
00000020: 53b7 dbbb 370a a0bb 0509 103c 3757 b23a
00000030: fd57 04bc d760 2cbc c47f cf3a 7a4f 86bc
00000040: 59b2 053c c3a3 5abc 0deb ad3b 7d2b 14bc
00000050: 33e0 193d 055d 69bc 9375 84bc db7b cf3a
00000060: d050 a1b8 af26 2f3d 9c39 75bc a6c9 043c
00000070: a112 bebb eb24 693b 4a79 7a3c 245c 923b
00000080: 5851 90bb 0bf9 09bb d497 8a3c 756a 32bc
00000090: a4f4 84bb 5c87 6dbc 10db 1e3c 3509 9eb9
000000a0: 57de 1bbc 00e3 bf3a 869e 133d 534d 4eb9
000000b0: bf24 c13b 58a9 5c3c b735 0ebc f374 fb3a
000000c0: cfaf 2c3d 0bf6 29bc e69b c1ba 1f88 f63c
000000d0: c238 38bc c0e0 843b 11ee 1c3b fa0e 01bc
000000e0: 6b38 78b9 2f1d d93b 2bda 7d3c 8a64 503b
000000f0: 6749 45bc 0876 1b3c ad1f 223c 8141 1d3c

running_mean f4 [64]
217.15541 -125.97315 -73.91613 -24.891308 61.494984 -234.45718 14.179492 142.91171
78.313034 42.953014 46.148453 -176.18791 68.568184 33.749874 87.11826 -71.15657
-95.935684 -264.76303 172.08414 -51.5753 -5.5937543 5.035968 -290.45544 98.051674
100.40029 76.34483 115.73321 208.73174 -158.56772 192.13179 -224.45013 -155.00444
18.01012 -284.54797 -29.84432 -237.78584 -140.47783 -130.49432 110.01885 -17.088524
147.67023 -193.6141 -42.225777 -52.690483 89.31505 -66.91192 8.985287 21.557045
-132.77226 394.26614 129.65147 -67.5344 -118.603035 66.5642 189.58742 -289.55286
-169.74518 -11.598028 -112.61127 134.7807 37.952675 -1.1310161 6.673339 49.64323
00000000: c927 5943 41f2 fbc2 0fd5 93c2 6621 c7c1
00000010: ddfa 7542 0a75 6ac3 33df 6241 66e9 0e43
00000020: 46a0 9c42 e3cf 2b42 0498 3842 1b30 30c3
00000030: e922 8942 dfff 0642 8d3c ae42 2a50 8ec2
00000040: 12df bfc2 ab61 84c3 8a15 2c43 1b4d 4ec2
00000050: 0900 b3c0 a626 a140 4c3a 91c3 751a c442
00000060: f3cc c842 8eb0 9842 6777 e742 53bb 5043
00000070: 5691 1ec3 bd21 4043 3c73 60c3 2301 1bc3
00000080: ba14 9041 2446 8ec3 2bc1 eec1 2dc9 6dc3
00000090: 537a 0cc3 8c7e 02c3 a709 dc42 4cb5 88c1
000000a0: 94ab 1343 369d 41c3 32e7 28c2 0ec3 52c2
000000b0: 4ea1 b242 e7d2 85c2 bcc3 0f41 d474 ac41
000000c0: b3c5 04c3 1122 c543 c7a6 0143 9d11 87c2
000000d0: c134 edc2 df20 8542 6196 3d43 c4c6 90c3
000000e0: c4be 29c3 8691 39c1 f838 e1c2 dcc7 0643
000000f0: 8acf 1742 23c5 90bf fe8b d540 ab92 4642

running_var f4 [64]
1830.7916 306.0655 595.66235 90.70277 750.5364 2065.3428 423.77808 624.07153
418.57703 990.5786 695.4105 871.3364 2014.9318 1715.3008 682.7031 1324.7452
867.3453 2108.9458 1164.108 1028.4196 322.93503 431.9582 2348.1162 1047.0869
802.90186 2932.212 968.6171 2193.8071 598.1492 789.9032 462.75516 1636.7485
95.52046 2445.1125 794.9426 1468.6926 1174.6188 1802.5741 1459.4916 247.85373
494.36258 1974.9908 1617.2803 342.28833 1319.3577 960.68756 561.3114 523.43243
569.2709 3915.063 1124.6903 125.66788 1350.3237 307.7737 1637.6362 2114.5774
868.9789 1608.8741 401.58167 957.1062 1570.1056 193.72594 768.1389 1003.461
00000000: 55d9 e444 6208 9943 64ea 1444 d167 b542
00000010: 54a2 3b44 7c15 0145 98e3 d343 9404 1c44
00000020: dc49 d143 08a5 7744 46da 2d44 88d5 5944
00000030: d1dd fb44 a069 d644 00ad 2a44 d997 a544
00000040: 19d6 5844 22cf 0345 7583 9144 6d8d 8044
00000050: af77 a143 a6fa d743 dcc1 1245 c8e2 8244
00000060: b8b9 4844 6443 3745 7f27 7244 ea1c 0945
00000070: 8c89 1544 ce79 4544 a960 e743 f497 cc44
00000080: 7a0a bf42 cdd1 1845 54bc 4644 2a96 b744
00000090: cdd3 9244 5f52 e144 bb6f b644 8eda 7743
000000a0: 692e f743 b5df f644 f828 ca44 e824 ab43
000000b0: 72eb a444 012c 7044 ee53 0c44 addb 0244
000000c0: 5651 0e44 02b1 7445 1796 8c44 f455 fb42
000000d0: 5cca a844 09e3 9943 5cb4 cc44 3d29 0445
000000e0: a63e 5944 f91b c944 74ca c843 cc46 6f44
000000f0: 6143 c444 d7b9 4143 e408 4044 81dd 7a44

weight f4 [64, 64, 3, 3]
-0.05063466 0.004595781 0.031900253 0.020654414 0.010126729 0.008521332 -0.036019858 -0.005502932
0.05161984 -0.005560939 0.0076112533 -0.041723352 -0.03477222 0.027443333 -0.031971585 -0.019452523
-0.008142719 0.0017326687 0.01750751 0.01759483 0.027449891 -0.006722195 -0.019436685 -0.040661637
-0.013220302 -0.010474495 -0.019001259 -0.014786612 -0.015380439 0.014592916 -0.035781473 -0.0043954
-0.02885574 0.0049637123 -0.02746729 -0.038908236 -0.015124741 -0.006670618 0.028715521 -0.031215487
-0.016227711 0.021408765 0.03696645 0.0090172775 -0.025142998 0.017874982 -0.0394366 -0.0456243
0.005147229 -0.03196288 -0.000113594724 -0.01169046 -0.03133814 -0.016153477 -0.04091591 -0.03641311
0.012976549 -0.0036056528 -0.02782916 -0.052646272 0.03408926 -0.017034817 0.033835925 -0.032081183
-0.024409255 0.034524314 0.00819012 -0.014160823 -0.016621372 -0.00031440417 0.014038046 0.027224896
-0.020839648 -0.043172564 -0.035180014 0.036287215 0.0009197126 0.004666954 0.026715674 -0.028842432
-0.035450503 -0.047988214 0.034953646 -0.003781083 -0.0006947173 -0.042089928 -0.0053202016 -0.039058905
-0.029193021 -0.0055391532 -0.02951734 0.011793275 0.015730275 -0.016657388 0.022299038 0.023327265
-0.0286732 0.0034192665 -0.007780503 -0.010933578 0.015127051 -0.032096263 -0.023982532 -0.003797418
-0.0059717237 -0.015523704 -0.022323687 -0.037556782 0.030225318 -0.0286871 0.008841601 -0.033263758
-0.030827781 -0.00473569 0.050263293 -0.0024116358 -0.000688172 -0.020961048 -0.00094988884 -0.016313428
0.03454029 0.0015310299 0.010763813 -0.0020075394 0.025323816 -0.030258391 -0.018286118 -0.017383963
-0.016641056 -0.0029759181 0.015734514 -0.044467486 -0.027933607 0.02213676 0.015344897 -0.0049964534
0.008791816 -0.0058107013 -0.008294159 -0.013015359 -0.023202222 -0.01091062 -0.032341454 -0.004011316
-0.03860656 -0.035092495 -0.036882628 0.039756525 0.034617614 0.013606238 -0.0030241986 0.008855182
0.014978514 -0.0047863727 0.015241502 0.0051060943 0.011217886 0.031032935 -0.048222 0.008501953
0.03272072 0.032322224 -0.013895015 0.015232517 -0.031391855 0.004658467 0.030282907 -0.010956418
0.021643259 0.052642725 -0.009932497 0.007283281 -0.025021236 -0.020646678 0.035331525 0.0069836904
-0.04935663 0.029842133 0.025217654 0.023887942 -0.00026663725 0.011819361 -0.026586624 -0.02524217
0.017955465 -0.0015819591 0.045456864 -0.0024157786 -0.0023240633 0.028691025 -0.026509 -0.044671647
0.00550426 0.03936448 -0.041799225 0.017518403 -0.029253 -0.028207695 -0.0027101485 -0.023071224
-0.020818004 0.01222492 -0.01727601 -0.0064608925 0.0065992884 0.028930193 0.01485661 -0.020623509
-0.039435837 0.020783495 -0.0014879006 0.014598792 -0.03163357 0.035225175 0.026826123 0.004311078
0.02101026 0.0011145006 0.0028765819 -0.018395027 -0.043393224 -0.025991363 0.008534107 -0.03746384
-0.03262934 -0.039182097 0.013780882 -0.012787239 -0.033680484 -0.032477874 -0.028201506 -0.031731673
0.03928982 -0.03221423 -0.040822107 -0.03483803 -0.012088193 0.03056555 0.0073200697 -0.013356026
-0.04292113 0.019467361 0.033976626 0.0008574535 0.028679889 -0.019558292 -0.04443192 -0.004377531
0.017214768 -0.013395584 0.0037953483 0.018523648 0.026775174 -0.031264927 -0.04861273 -0.017543329
00000000: 4a66 4fbd 3598 963b d7a9 023d 7233 a93c
00000010: 94ea 253c 0f9d 0b3c 8f89 13bd f051 b4bb
00000020: 536f 533d 8a38 b6bb d267 f93b 1be6 2abd
00000030: 516d 0ebd d7d0 e03c a3f4 02bd e65a 9fbc
00000040: 0a69 05bc b71a e33a e96b 8f3c 0823 903c
00000050: 98de e03c dc45 dcbb af39 9fbc d18c 26bd
00000060: f799 58bc 379d 2bbc 87a8 9bbc 8c43 72bc
00000070: 3dfe 7bbc 2017 6f3c 988f 12bd 4a07 90bb
00000080: df62 ecbc a3a6 a23b 1503 e1bc 3e5e 1fbd
00000090: c3cd 77bc 3395 dabb d03c eb3c 9fb7 ffbc
000000a0: faef 84bc 6f61 af3c 226a 173d 34bd 133c
000000b0: b0f8 cdbc 8e6e 923c 4688 21bd 8ce0 3abd
000000c0: 16aa a83b 82eb 02bd b439 eeb8 5889 3fbc
000000d0: 6c5c 00bd 4c54 84bc 7197 27bd ea25 15bd
000000e0: 979b 543c d14c 6cbb fbf9 e3bc 9ea3 57bd
000000f0: 2ea1 0b3d 9a8c 8bbc 8a97 0a3d 8f67 03bd
00000100: ebf5 c7bc 5e69 0d3d da2f 063c cc02 68bc
00000110: 8b29 88bc 9dd6 a4b9 d5ff 653c bf06 df3c
00000120: e9b7 aabc b7d5 30bd eb18 10bd e7a1 143d
00000130: de18 713a 3fed 983b d4da da3c f746 ecbc
00000140: 8c34 11bd 4a8f 44bd 8e2b 0f3d 0ccc 77bb
00000150: b01d 36ba 7d66 2cbd 1655 aebb 3bfc 1fbd
00000160: 3426 efbc c981 b5bb 59ce f1bc 9538 413c
00000170: c7dc 803c 1375 88bc 79ac b63c d218 bf3c
00000180: 0fe4 eabc c615 603b 97f3 febb c022 33bc
00000190: 73d7 773c 5f77 03bd 0477 c4bc 1ade 78bb
000001a0: 73ae c3bb 2257 7ebc 2ae0 b6bc 24d5 19bd
000001b0: 169b f73c 3601 ebbc 5ddc 103c 943f 08bd
000001c0: 8b8a fcbc d92d 9bbb e2e0 4d3d 890c 1ebb
000001d0: 7166 34ba 81b6 abbc f601 79ba bda3 85bc
000001e0: 1e7a 0d3d d7ac c83a b45a 303c ec90 03bb
000001f0: e473 cf3c 72e0 f7bc c5cc 95bc d068 8ebc
00000200: d352 88bc 9f07 43bb abe5 803c 8a23 36bd
00000210: 05d5 e4bc 2758 b53c 2a69 7b3c 4ab9 a3bb
00000220: 8d0b 103c b267 bebb 39e4 07bc 5f3e 55bc
00000230: 9612 bebc 75c2 32bc 7978 04bd 5c71 83bb
00000240: ea21 1ebd 26bd 0fbd 3d12 17bd bdd7 223d
00000250: 33cb 0d3d b3ec 5e3c a231 46bb 5315 113c
00000260: 7168 753c 01d7 9cbb 7eb7 793c 0651 a73b
00000270: 39cb 373c c838 fe3c 6f84 45bd c74b 0b3c
00000280: 2906 063d 4f64 043d eba7 63bc cf91 793c
00000290: bf94 00bd 0ea6 983b dc13 f83c 8c82 33bc
000002a0: 344d b13c e69f 573d e9bb 22bc 97a8 ee3b
000002b0: 56f9 ccbc 3923 a9bc cab7 103d 71d7 e43b
000002c0: 2d2a 4abd 7d77 f43c 4195 ce3c a5b0 c33c
000002d0: 72cb 8bb9 fea5 413c 31cc d9bc abc8 cebc
000002e0: 5717 933c bd59 cfba fa30 3a3d 0a52 1ebb
000002f0: 504f 18bb 7109 eb3c 6729 d9bc 9ef9 36bd
00000300: 145d b43b a63c 213d aa35 2bbd c182 8f3c
00000310: fda3 efbc d313 e7bc bf9c 31bb ddff bcbc
00000320: 858a aabc 084b 483c 6b86 8dbc e5b5 d3bb
00000330: d83e d83b 03ff ec3c 2469 733c a2f2 a8bc
00000340: 7987 21bd 2642 aa3c a905 c3ba c62f 6f3c
00000350: 3492 01bd 4648 103d 75c2 db3c f243 8d3b
00000360: b51d ac3c 6f14 923a 0985 3c3b 2bb1 96bc
00000370: 18bd 31bd d7eb d4bc a4d2 0b3c af73 19bd
00000380: 58a6 05bd 687d 20bd 35c9 613c 9181 51bc
00000390: 8cf4 09bd 8507 05bd d806 e7bc 12f9 01bd
000003a0: 5dee 203d 12f3 03bd 1535 27bd 52b2 0ebd
000003b0: 8e0d 46bc 9b64 fa3c 32dd ef3b 3cd3 5abc
000003c0: 11ce 2fbd 047a 9f3c 132b 0b3d bbc6 603a
000003d0: 16f2 ea3c b638 a0bc 3ffe 35bd 6471 8fbb
000003e0: fc05 8d3c 2779 5bbc 61bb 783b e8be 973c
000003f0: 9c57 db3c a70f 00bd 241e 47bd 07b7 8fbc

bias f4 [64]
-0.0061253244 -0.024416365 -0.023542194 0.013825887 -0.020611124 0.004490218 -0.012938668 0.01855141
0.030541882 0.03736391 0.04193008 -0.01822428 -0.014305109 0.007406323 -0.016675841 0.04674458
0.03221128 0.022951247 -0.040925533 0.005565966 -0.027920628 -0.033095237 -0.017035522 -0.017053252
-0.03704626 -0.033051044 -0.0023593337 0.011728589 0.020714832 0.006481922 0.00030123768 0.0030332487
-0.028200323 0.029255304 -0.008093849 -0.027528876 -0.012682517 0.027462598 0.017791409 0.036324494
-0.025101747 -0.040821925 0.03074722 0.041120254 -0.042030975 0.018767627 0.0438684 0.015637456
-0.010318396 0.009050287 -0.015829137 0.024546657 -0.018238317 -0.030983746 -0.024337409 -0.027572187
0.00064273196 -0.0017606352 0.008456319 -0.0010076856 0.001481052 -0.009810619 -0.029054742 0.028373353
00000000: f2b6 c8bb d404 c8bc 8fdb c0bc f985 623c
00000010: a9d8 a8bc ae22 933b b5fc 53bc 20f9 973c
00000020: f832 fa3c e60a 193d e0be 2b3d 164b 95bc
00000030: fa5f 6abc beb0 f23b c69b 88bc 3f77 3f3d
00000040: faef 033d 4104 bc3c 88a1 27bd b562 b63b
00000050: cdb9 e4bc df8e 07bd 148e 8bbc 43b3 8bbc
00000060: d2bd 17bd 8860 07bd 0d9f 1abb 4529 403c
00000070: 27b2 a93c 4e66 d43b 70ef 9d39 78c9 463b
00000080: 5d04 e7bc d2a8 ef3c 109c 04bc 3d84 e1bc
00000090: 55ca 4fbc 3ef9 e03c 4abf 913c fec8 143d
000000a0: 2ea2 cdbc e434 27bd 98e1 fb3c b66d 283d
000000b0: ac28 2cbd 91be 993c 5aaf 333d 1f1a 803c
000000c0: 7d0e 29bc a847 143c 1bac 81bc 1216 c93c
000000d0: 8668 95bc a0d1 fdbc 3f5f c7bc 11df e1bc
000000e0: 037d 283a 1dc5 e6ba 5f8c 0a3c 5114 84ba
000000f0: dc1f c23a b8bc 20bc 3604 eebc 3c6f e83c

weight f4 [64]
0.012312443 0.6831309 0.26007676 0.66856015 0.46316227 0.7181873 0.60198164 0.03611346
0.08663832 1.008498 0.57005495 0.64293015 0.91143405 0.7027297 0.729325 0.74542844
0.0011474937 0.67783546 0.9079769 0.65154976 0.77753913 0.94663215 0.69833934 0.61959845
0.9403007 0.5333137 0.06254396 0.25378442 0.44344744 0.5739197 0.5723524 0.24012935
0.98401177 0.10188837 0.67143625 0.73894763 0.23683965 0.5019842 0.23694843 0.24508199
0.86161375 0.42205 0.4142667 0.65903705 0.5202937 0.75659466 0.80999374 0.29137796
0.672777 0.5853165 0.15629101 0.3521163 0.22369456 0.5424591 0.7508795 0.36619964
0.15294664 0.98938817 0.142641 0.93947726 0.11049783 0.005816198 0.9620828 0.24504918
00000000: 21ba 493c abe1 2e3f c828 853e c226 2b3f
00000010: 9b23 ed3e 1fdb 373f 781b 1a3f b5eb 133d
00000020: 6e6f b13d 7616 813f 1fef 113f 1297 243f
00000030: be53 693f 18e6 333f 0bb5 3a3f 66d4 3e3f
00000040: 8067 963a a086 2d3f 2d71 683f f7cb 263f
00000050: ce0c 473f 7c56 723f 5ec6 323f 019e 1e3f
00000060: 8cb7 703f 3f87 083f 0c17 803d 08f0 813e
00000070: 8b0b e33e 67ec 123f b085 123f 78e4 753e
00000080: 32e8 7b3f daaa d03d 3fe3 2b3f ac2b 3d3f
00000090: 1886 723e 0982 003f 9ca2 723e c6f6 7a3e
000000a0: b892 5c3f f016 d83e c41a d43e a7b6 283f
000000b0: f831 053f 30b0 413f c05b 4f3f 7e2f 953e
000000c0: 1d3b 2c3f 4dd7 153f c00a 203e 9648 b43e
000000d0: 3010 653e 99de 0a3f a439 403f 857e bb3e
000000e0: 0b9e 1c3e 8b48 7d3f 7b10 123e 9581 703f
000000f0: b04c e23d ce95 be3b 0f4b 763f 2cee 7a3e

bias f4 [64]
0.003207089 0.011821665 0.00010575131 0.0005231084 0.0040124576 -0.0030709773 0.004373165 0.0042991117
-0.003428307 0.011689984 0.006198486 -0.0054971254 0.011488077 0.0131722 -0.0029698967 0.0006462693
-0.0091002975 0.014813394 -0.013036797 0.009806972 -0.0018694898 -0.0012434816 -0.0009600226 -0.011178235
0.0054970826 0.010226968 -0.0063104606 -0.008862125 0.0033107772 -0.01017954 -0.0009436907 0.0045068515
-0.011321766 0.0051896973 -0.0074752504 -0.0073114564 0.004248587 -0.0021867887 -0.009967479 0.019201307
-0.0010654643 0.009614901 -0.011464388 0.006236908 -0.011659632 -0.010052667 -0.00037560612 0.00068056723
-0.0062284702 0.0037178693 -0.0050247824 0.002116258 -0.008332108 -0.007633184 0.0076875407 0.0024031582
0.011644397 0.00078714953 -0.01284955 -0.0005244588 0.0012782173 0.006611766 -0.008086875 0.013502129
00000000: 062e 523b a8af 413c cdc6 dd38 3621 093a
00000010: ef7a 833b 7342 49bb c44c 8f3b 90df 8c3b
00000020: 72ad 60bb 5987 3f3c ab1c cb3b 3b21 b4bb
00000030: 7d38 3c3c 36d0 573c 99a2 42bb 666a 293a
00000040: 6a19 15bc e1b3 723c 4a98 55bc 6cad 203c
00000050: ab09 f5ba 52fc a2ba 07aa 7bba ea24 37bc
00000060: df20 b43b 038f 273c fbc7 cebb 7232 11bc
00000070: a0f9 583b 16c8 26bc 0362 77ba 36ae 933b
00000080: ee7e 39bc 560e aa3b f2f2 f4bb f194 efbb
00000090: bb37 8b3b 3a50 0fbb a34e 23bc 0f4c 9d3c
000000a0: 0da7 8bba d187 1d3c 21d5 3bbc fa5e cc3b
000000b0: 0b08 3fbc f1b3 24bc 00ed c4b9 1868 323a
000000c0: 3218 ccbb 7fa7 733b eea6 a4bb ebb0 0a3b
000000d0: 6583 08bc ca1f fabb c4e7 fb3b 4e7e 1d3b
000000e0: 24c8 3e3c b658 4e3a eb86 52bc d67b 09ba
000000f0: db89 a73a 83a7 d83b d07e 04bc 0938 5d3c

running_mean f4 [64]
-0.39077976 0.008605569 -0.053938467 -0.03255746 -0.41631615 -0.1421439 -0.0628093 -0.12913848
0.09905087 -0.14741111 -0.027648028 -0.019798817 -0.33198157 0.09692439 0.085499115 -0.32678598
-0.23689382 -0.27952826 0.4335783 -0.040793285 -0.14692028 -0.15736948 0.44383565 0.27140838
-0.19444592 -0.12061449 -0.16365115 0.26467574 -0.103822455 -0.13658357 -0.014207589 -0.22773221
-0.4731575 -0.12873842 0.20715122 -0.102485105 -0.2349475 0.08162938 -0.16304351 -0.026980625
0.20122288 -0.03680923 -0.4154483 -0.08076176 0.085623324 -0.15402645 0.2672151 -0.29340318
-0.37416756 -0.10498679 -0.118719526 -0.08517729 -0.20533867 -0.3637261 0.09049466 -0.25843862
-0.04217774 -0.34532806 -0.023252726 -0.1252014 0.01801465 -0.11736143 0.11137655 -0.0244181
00000000: 4914 c8be 5ffe 0c3c 95ee 5cbd f95a 05bd
00000010: 6427 d5be 2c8e 11be 2aa2 80bd e13c 04be
00000020: 2fdb ca3d f0f2 16be 1e7e e2bc 2131 a2bc
00000030: 7df9 a9be 4b80 c63d 291a af3d 7e50 a7be
00000040: 4b94 72be 541e 8fbe fafd dd3e dc16 27bd
00000050: 4572 16be 7725 21be 6d3e e33e 0af6 8a3e
00000060: d51c 47be bb04 f7bd 2b94 27be 9483 873e
00000070: dea0 d4bd 90dc 0bbe f3c6 68bc a232 69be
00000080: b341 f2be 01d4 03be 731f 543e b6e3 d1bd
00000090: 1496 70be 4e2d a73d e1f4 26be 7906 ddbc
000000a0: 5f0d 4e3e 46c5 16bd a4b5 d4be 6c66 a5bd
000000b0: 485b af3d 1cb9 1dbe 6bd0 883e f138 96be
000000c0: e492 bfbe 5003 d7bd 3923 f3bd 6e71 aebd
000000d0: 4d44 52be 4f3a babe 4455 b93d 1152 84be
000000e0: 91c2 2cbd d7ce b0be 807c bebc cc34 00be
000000f0: 7693 933c 305b f0bd 6319 e43d 7808 c8bc

running_var f4 [64]
0.37441537 0.080111556 0.058552384 0.09912673 0.22240335 0.09839829 0.059144262 0.09190909
0.083505355 0.19361213 0.10133741 0.09921089 0.14860548 0.060443155 0.15511279 0.24018043
0.24479656 0.31289047 0.24523364 0.19477764 0.11278688 0.05337434 0.3019369 0.16641724
0.11399268 0.14547823 0.17290135 0.17942283 0.2043146 0.12223908 0.06423261 0.23474126
0.24334376 0.14446688 0.18867826 0.10416529 0.12807402 0.027936751 0.14024843 0.108094394
0.16214924 0.12466994 0.42789623 0.10241405 0.13303328 0.25162393 0.1926354 0.31398448
0.27314574 0.12231547 0.13410348 0.09124916 0.1117234 0.24651706 0.16757856 0.21961541
0.05013793 0.19423318 0.07444272 0.15295568 0.11039492 0.120358445 0.15204799 0.06609559
00000000: 5fb3 bf3e 8711 a43d a0d4 6f3d f402 cb3d
00000010: b4bd 633e 0b85 c93d 4141 723d d53a bc3d
00000020: db04 ab3d 4242 463e fd89 cf3d 142f cb3d
00000030: 092c 183e 3e93 773d e3d5 1e3e dcf1 753e
00000040: f3ab 7a3e 2e33 a03e 871e 7b3e ca73 473e
00000050: cffc e63d 0d9f 5a3d 7997 9a3e 4869 2a3e
00000060: ff74 e93d 3ff8 143e 0d0d 313e 9eba 373e
00000070: d937 513e 7c58 fa3d 638c 833d 0360 703e
00000080: 1b2f 793e 20ef 133e e034 413e 9d54 d53d
00000090: d625 033e 9ddb e43c 499d 0f3e 9860 dd3d
000000a0: 730a 263e f452 ff3d 3715 db3e 75be d13d
000000b0: e039 083e dad4 803e 3742 453e 93c2 a03e
000000c0: c2d9 8b3e 8880 fa3d 6c52 093e d7e0 ba3d
000000d0: 3dcf e43d f86e 7c3e b799 2b3e dde2 603e
000000e0: 6e5d 4d3d 10e5 463e 6d75 983d 6aa0 1c3e
000000f0: bb16 e23d 7d7e f63d 78b2 1b3e 205d 873d

weight f4 [64, 64, 3, 3]
0.0105662085 0.031080803 0.013341491 0.038528383 0.009730773 0.020543346 -0.01697343 0.019730724
0.0058051883 -0.025502648 -0.026003009 -0.004976876 0.034952976 -0.02923816 0.01124006 0.015403558
0.026528079 -0.04680231 -0.01120543 0.039240252 0.0036803952 -0.007998726 0.032012563 -0.0039352723
-0.009871214 -0.013808298 0.006785114 0.03348714 -0.024759205 0.038012967 0.00500252 -0.0348378
0.003588248 -0.032276053 0.036342904 -0.016490104 0.0010460756 0.0017889158 0.022963317 -0.022459218
-0.037095044 -0.027412908 -0.010331456 0.023806673 -0.025508933 -0.0102257775 -0.028291544 0.02676071
-0.026130578 0.008826621 0.006056777 -0.0036214772 0.014202751 -0.0056759105 0.037593495 -0.04052837
-0.05339195 0.012565068 -0.034454037 0.033217795 -0.024178373 0.024997063 -0.06719496 -0.017272187
-0.04342983 0.015685225 -0.04403379 0.010721117 -0.03678988 0.03131204 -0.057501867 -0.030314377
0.043425437 0.0005319585 -0.004947255 0.030020889 0.0146357585 0.0212053 0.03593857 -0.007201156
-0.016301135 0.010992315 0.028322851 -0.04313295 0.020050103 -0.041538328 0.009693391 -0.02837422
0.0010507406 -0.03149132 -0.043538917 0.020008795 0.034093186 0.0033825915 -0.013397527 0.02379025
0.0039557084 0.010772412 0.033979654 0.048965197 -0.02581832 0.034589157 -0.018232541 0.012171675
0.0067590256 0.014477192 -0.006060839 0.037436806 0.023843257 -0.004135516 -0.043152343 -0.016639465
0.014782862 -0.020544717 -0.008763456 0.019938176 0.02128127 0.00088913983 -0.027671559 -0.0067099985
0.009131753 -0.0014210026 0.042418495 -0.03616982 -0.01470284 0.0528005 -0.008351746 -0.021375053
0.03473613 0.019648531 -0.023704728 0.04659352 0.035048224 0.03171778 -0.009297162 0.012772718
-0.027712084 -0.028887048 0.009294749 0.015018929 4.5794302e-05 -0.0020887228 0.00870731 -0.02896993
-0.015563101 -0.0035383352 -0.011547492 -0.02009315 -0.03232713 -0.032987416 -0.032022793 -0.033952158
-0.027120298 -0.013366632 -0.0029305904 -0.019316785 0.004395943 0.015201597 -0.00972715 -0.03113826
-0.01819946 0.0007200043 0.029942846 -0.005198852 0.019598048 -0.021482114 -0.008557081 0.013720834
0.027026592 0.018112922 0.028306872 0.016321218 -0.0017162934 0.013552943 -0.04189262 -0.0035940825
0.012977579 0.015129341 -0.040310442 0.03638251 0.026338907 -0.017445194 -0.026123367 0.016054308
-0.022143973 -0.028418373 0.004311932 0.018369652 -0.0011429312 0.0147191705 0.020737806 -0.004525417
0.012566122 -0.05304388 0.01078862 0.04486274 -0.016187213 -0.016742246 -0.0036071003 -0.007800321
0.007284742 0.019807905 -0.017201051 0.01559577 0.041798443 0.04147125 0.008670952 -0.034917884
-0.01739596 0.04771516 -0.006789403 0.019145548 -0.0035239349 0.015891181 -0.02192561 0.0046367934
0.015575019 -0.030330747 -0.0038450097 0.034667857 -0.025513213 -0.03330792 -0.042391866 0.017566629
-0.015834467 -0.015940558 0.015614556 0.004147678 0.0042219968 0.026717063 0.01968421 -0.006733654
0.020121394 0.009408973 -0.025232352 -0.015990421 0.013349567 -0.009698766 0.020084249 -0.04177145
-0.0067960513 0.0065088277 0.010515417 0.026368706 -0.011317083 0.051365018 -0.033698596 0.022470947
0.0013556757 -0.03953576 0.0057995007 -0.021111451 0.020219991 0.0280273 -0.019514417 0.010644474
00000000: e41d 2d3c 2b9d fe3c 4596 5a3c f0cf 1d3d
00000010: d26d 1f3c 854a a83c dd0b 8bbc 54a2 a13c
00000020: 7339 be3b eeea d0bc 4304 d5bc 1015 a3bb
00000030: da2a 0f3d de84 efbc 3b28 383c 345f 7c3c
00000040: 6a51 d93c c7b3 3fbd fb96 37bc 63ba 203d
00000050: c932 713b 170d 03bc 9b1f 033d 75f3 80bb
00000060: dfba 21bc 333c 62bc a955 de3b d029 093d
00000070: d1d3 cabc 7cb3 1b3d 2eec a33b 15b2 0ebd
00000080: d028 6b3b e533 04bd 4cdc 143d 4116 87bc
00000090: 791c 893a 0e7a ea3a 911d bc3c 65fc b7bc
000000a0: f9f0 17bd 0991 e0bc 4445 29bc 3606 c33c
000000b0: 1cf8 d0bc 058a 27bc abc3 e7bc 4739 db3c
000000c0: cb0f d6bc 889d 103c ee77 c63b 4e56 6dbb
000000d0: a8b2 683c fdfc b9bb a3fb 193d 1301 26bd
000000e0: 84b1 5abd b7dd 4d3c ad1f 0dbd 620f 083d
000000f0: b911 c6bc a4c6 cc3c 839d 89bd 677e 8dbc
00000100: 7ae3 31bd 4d7e 803c c65c 34bd a0a7 2f3c
00000110: fcb0 16bd 0e41 003d 1487 6bbd db55 f8bc
00000120: dfde 313d 2173 0b3a 951c a2bb 5eee f53c
00000130: d2ca 6f3c bdb6 ad3c 5234 133d adf7 ebbb
00000140: f589 85bc 1c19 343c 5305 e83c 2dac 30bd
00000150: 1d40 a43c 1824 2abd 07d1 1e3c 0d71 e8bc
00000160: 01b9 893a 0bfd 00bd dd55 32bd 7ce9 a33c
00000170: 4ca5 0b3d 78ae 5d3b 4d81 5bbc c5e3 c23c
00000180: e39e 813b c57e 303c 402e 0b3d bb8f 483d
00000190: f180 d3bc 5cad 0d3d 695c 95bc b56b 473c
000001a0: d17a dd3b bf31 6d3c 019a c6bb 5657 193d
000001b0: ef52 c33c 3983 87bb 83c0 30bd 7d4f 88bc
000001c0: d133 723c 654d a8bc 9994 0fbc 6355 a33c
000001d0: 0f56 ae3c 2a15 693a 77af e2bc 8cdf dbbb
000001e0: 599d 153c ef40 baba 04bf 2d3d ce26 14bd
000001f0: 2ee4 70bc 5645 583d c3d5 08bc bc1a afbc
00000200: 7947 0e3d f5f5 a03c 6b30 c2bc d9d8 3e3d
00000210: ba8e 0f3d 81ea 013d 2053 18bc aa44 513c
00000220: 7404 e3bc 88a4 ecbc 0149 183c f411 763c
00000230: 4213 4038 f4e2 08bb 1ba9 0e3c 5952 edbc
00000240: 60fc 7ebc 6ae3 67bb b131 3dbc 649a a4bc
00000250: 7469 04bd d01d 07bd 552a 03bd 6b11 0bbd
00000260: 632b debc b8ff 5abc 260f 40bb 3c3e 9ebc
00000270: d80b 903b 1e10 793c a05e 1fbc aa15 ffbc
00000280: 0917 95bc acbe 3c3a b34a f53c 225b aabb
00000290: 168c a03c 42fb afbc 0033 0cbc 59cd 603c
000002a0: df66 dd3c 8d61 943c d0e3 e73c 13b4 853c
000002b0: 40f5 e0ba 2a0d 5e3c 9997 2bbd b38a 6bbb
000002c0: e99f 543c 0ee1 773c 901c 25bd d405 153d
000002d0: b1c4 d73c 39e9 8ebc ac00 d6bc 5384 833c
000002e0: 4767 b5bc a6cd e8bc 1b4b 8d3b f47b 963c
000002f0: 68ce 95ba ad28 713c 55e2 a93c f349 94bb
00000300: 23e2 4d3c 8a44 59bd c1c2 303c fec1 373d
00000310: 0c9b 84bc 0927 89bc 1a65 6cbb d699 ffbb
00000320: d8b4 ee3b 3044 a23c 38e9 8cbc 6785 7f3c
00000330: d834 2b3d c2dd 293d 9c10 0e3c 0e06 0fbd
00000340: f981 8ebc f970 433d a479 debb 20d7 9c3c
00000350: d1f1 66bb 392e 823c 569d b3bc 3ef0 973b
00000360: 5d2e 7f3c 3078 f8bc 8ffc 7bbb e2ff 0d3d
00000370: 1601 d1bc e36d 08bd 18a3 2dbd e4e7 8f3c
00000380: 49b7 81bc c695 82bc 32d4 7f3c 3fe9 873b
00000390: ad58 8a3b bedd da3c c840 a13c fca5 dcbb
000003a0: 9fd5 a43c 1828 1a3c 14b4 cebc 58fe 82bc
000003b0: 24b8 5a3c 93e7 1ebc b987 a43c 8a18 2bbd
000003c0: 69b1 debb 0148 d53b db48 2c3c 2f03 d83c
000003d0: 496b 39bc 2064 523d 8a07 0abd fe14 b83c
000003e0: eeb0 b13a 40f0 21bd bd09 be3b ecf1 acbc
000003f0: 65a4 a53c 8299 e53c b3dc 9fbc 2966 2e3c

bias f4 [64]
0.025370784 -0.0038307046 -0.037280466 -0.029466735 0.008856487 0.0016862596 -0.024414068 -0.0064348066
0.0018863281 0.03972474 -0.0056882943 -0.033791114 0.008514983 0.04365525 -0.014756315 -0.0061034635
0.0019914869 0.011365932 -0.022161653 -0.012027559 -0.034841027 0.024015402 0.020781837 -0.017961007
0.021160651 -0.035744295 -0.03927906 -0.028903196 -0.023491664 -0.033981763 0.030187361 0.015059217
0.0349016 0.041024655 0.026827045 0.020910129 0.025174327 0.009598347 0.006385857 0.03963352
0.0006001297 0.0027122064 -0.030873409 0.03237345 0.033195633 -0.0337905 0.025613729 0.0043349103
-0.018165182 0.0025803715 -0.045163613 -0.019964686 -0.040129732 -0.00951642 0.026089143 0.034646053
0.020714868 -0.03375192 -0.005538516 -0.00019952154 0.014145817 -0.0005244461 0.021092528 0.03403213
00000000: 64d6 cf3c 8f0c 7bbb 67b3 18bd 3964 f1bc
00000010: cd1a 113c 7c05 dd3a 0300 c8bc 12db d2bb
00000020: ab3e f73a 69b6 223d df64 babb 8d68 0abd
00000030: 6d82 0b3c d9cf 323d 79c4 71bc 90ff c7bb
00000040: 9b83 023b 2d38 3a3c 5b8c b5bc 3d0f 45bc
00000050: 77b5 0ebd f3bb c43c ac3e aa3c f622 93bc
00000060: 1a59 ad3c 9c68 12bd 14e3 20bd 65c6 ecbc
00000070: 9771 c0bc 7630 0bbd 7c4b f73c efba 763c
00000080: fbf4 0e3d 7809 283d 64c4 db3c b84b ab3c
00000090: 643a ce3c 6342 1d3c 7340 d13b c256 223d
000000a0: 0652 1d3a 46bf 313b 3bea fcbc 069a 043d
000000b0: 25f8 073d e867 0abd e2d3 d13c dd0b 8e3b
000000c0: 26cf 94bc 731b 293b 7bfd 38bd fb8c a3bc
000000d0: 135f 24bd c2ea 1bbc e6b8 d53c 05e9 0d3d
000000e0: 3ab2 a93c 743f 0abd 717c b5bb a836 51b9
000000f0: dbc3 673c fb7a 09ba 3dca ac3c 4665 0b3d

weight f4 [64]
0.6046786 0.27149725 0.13063583 0.2555114 0.6881747 0.22561066 0.06326357 0.7836538
0.92760533 0.63506734 0.2511272 0.5894688 0.5013261 0.31921825 0.33132622 0.8857357
0.66394466 0.59191 0.7378966 0.03742019 0.15596776 0.29676288 0.41323283 0.86247915
0.08512799 0.18409595 0.011521458 0.083073035 0.20315218 0.7827172 0.97211707 0.5982187
0.1809725 0.37007207 0.36600125 0.7314536 0.6807466 0.82173836 0.7288722 0.3853156
0.261418 0.81932825 0.9806984 0.9516685 0.21978231 0.06533275 0.9288031 0.27097723
0.28415498 0.6794301 0.9310689 0.771915 0.53762203 0.30960292 0.117120385 0.061743982
0.7990387 0.90351635 0.70475715 0.9261752 0.3947253 0.33750048 0.96732384 0.44693568
00000000: 37cc 1a3f b001 8b3e 66c5 053e 64d2 823e
00000010: 382c 303f 7b06 673e 5590 813d 899d 483f
00000020: 8b77 6d3f c693 223f bf93 803e 6de7 163f
00000030: e856 003f 9370 a33e 97a3 a93e 93bf 623f
00000040: 47f8 293f 6a87 173f cbe6 3c3f ea45 193d
00000050: 03b6 1f3e 4ef1 973e 4193 d33e 6fcb 5c3f
00000060: 9557 ae3d a683 3c3e 7fc4 3c3c 3222 aa3d
00000070: 2007 503e 2860 483f aadc 783f dc24 193f
00000080: db50 393e 167a bd3e 8464 bb3e 8b40 3b3f
00000090: 6945 2e3f 725d 523f 5e97 3a3f 1648 c53e
000000a0: 95d8 853e 7fbf 513f 0d0f 7b3f 8ca0 733f
000000b0: 9d0e 613e 2dcd 853d 0ac6 6d3f 87bd 8a3e
000000c0: c37c 913e 22ef 2d3f 885a 6e3f 399c 453f
000000d0: 99a1 093f 4684 9e3e d0dc ef3d 42e7 7c3d
000000e0: cd8d 4c3f d94c 673f f76a 343f d119 6d3f
000000f0: 6f19 ca3e ddcc ac3e 89a2 773f c1d4 e43e

bias f4 [64]
-0.00043938775 -0.01066985 -0.0125695765 0.00026649894 -0.002341498 0.0009996677 0.001652808 -0.0009453372
-0.02879979 -0.011219399 0.0016115902 0.00021234404 0.0012718152 -0.0037054187 0.0023995626 -0.013432259
0.0015108084 -0.0040234937 -0.01678823 -0.00672473 0.0016710255 0.004224619 -0.017557483 -0.009456035
0.0030399815 -0.013369944 0.0005544396 -0.0019459078 0.0020909493 -0.0020583833 -0.009305379 -0.012872685
0.00066711195 -0.0108412495 -0.016510092 -0.008466795 -0.0060430397 -0.011912456 -0.0049831234 0.0054108747
-0.015279125 0.0010610913 0.0013467909 -0.011926577 -0.018934358 -0.011006932 -0.010123797 -0.0038206207
-0.0026016186 -0.004106677 -0.001389268 -0.008589524 -0.013997237 0.011984005 -0.0020760188 0.0034900983
-0.014302453 0.004348049 -0.01310249 0.00015139682 0.00028283685 0.0025869205 -0.015758 -0.00397282
00000000: a05d e6b9 98d0 2ebc a0f0 4dbc e2b8 8b39
00000010: d173 19bb 4807 833a 09a3 d83a 81d0 77ba
00000020: 8aed ebbc 92d1 37bc fe3b d33a aba8 5e39
00000030: 09b3 a63a 9cd6 72bb fb41 1d3b fa12 5cbc
00000040: 5106 c63a 83d7 83bb 7887 89bc 205b dcbb
00000050: 5006 db3a ac6e 8a3b b6d4 8fbc 7ced 1abc
00000060: 6d3a 473b 9c0d 5bbc d057 113a d50d ffba
00000070: 4f08 093b f1e5 06bb 9775 18bc f4e7 52bc
00000080: 20e1 2e3a 7f9f 31bc 2c40 87bc 50b8 0abc
00000090: b104 c6bb 762c 43bc 7849 a3bb b54d b13b
000000a0: 4c55 7abc 5114 8b3a ce86 b03a b167 43bc
000000b0: 3a1c 9bbc 6b56 34bc 48de 25bc 6163 7abb
000000c0: eb7f 2abb 4e91 86bb 1918 b6ba 13bb 0cbc
000000d0: ab54 65bc 8f58 443c d10d 08bb 22ba 643b
000000e0: d654 6abc 147a 8e3b d4ab 56bc 46c0 1e39
000000f0: b849 9439 5389 293b ec16 81bc 6e2e 82bb

running_mean f4 [64]
-0.0591548 0.32090715 -0.32220164 0.0165354 -0.37963873 0.14290947 -0.32432413 -0.36289304
-0.393678 -0.41479227 -0.21501946 0.027338598 0.25652352 0.027393151 0.17310815 -0.18105586
0.22221515 0.043188915 -0.49317515 0.14404742 -0.13120364 0.32152745 -0.10443633 0.15867718
-0.35311842 0.37525707 -0.33430123 -0.1063162 0.025188357 -0.312918 -0.03542256 -0.012388227
-0.3254914 0.0022308584 -0.08802886 0.07926971 -0.29778516 -0.14109649 0.015438117 -0.1260222
0.064299405 -0.069125086 0.49010545 -0.25364825 0.58539027 -0.534723 -0.4765867 0.033546645
-0.48458812 -0.33951673 0.4079268 0.12165766 -0.34791967 -0.07162721 0.21276511 0.008621345
0.5311947 -0.36099458 -0.34114268 -0.1955378 -0.20331441 -0.28533337 -0.26197353 0.04244295
00000000: 4e4c 72bd f14d a43e 9df7 a4be 3f75 873c
00000010: 0260 c2be dc56 123e d00d a6be 1ecd b9be
00000020: 2a90 c9be a75f d4be 102e 5cbe 32f5 df3c
00000030: 0d57 833e 9a67 e03c 4343 313e b566 39be
00000040: 5e8c 633e dce6 303d 7481 fcbe 2b81 133e
00000050: 3f5a 06be 3f9f a43e b7e2 d5bd 457c 223e
00000060: f0cb b4be b221 c03e 8829 abbe 4fbc d9bd
00000070: d057 ce3c ca36 a0be 3f17 11bd fdf7 4abc
00000080: cfa6 a6be 9833 123b 7a48 b4bd 2858 a23d
00000090: 4c77 98be 997b 10be 28f0 7c3c f70b 01be
000000a0: 68af 833d 7491 8dbd 1aef fa3e 2fde 81be
000000b0: 23dc 153f 9be3 08bf 2c03 f4be 3568 093d
000000c0: ef1b f8be 23d5 adbe c8db d03e a727 f93d
000000d0: 8722 b2be 49b1 92bd 19df 593e 8b40 0d3c
000000e0: 60fc 073f 48d4 b8be 41aa aebe 103b 48be
000000f0: a731 50be 3717 92be 6521 86be a9d8 2d3d

running_var f4 [64]
0.114265226 0.11265936 0.13700531 0.09459059 0.185198 0.048506636 0.09416501 0.16490754
0.14368555 0.09702034 0.061171506 0.07220704 0.14485623 0.06114823 0.0873662 0.11619023
0.063796386 0.13198046 0.15633066 0.07611426 0.13751137 0.10557481 0.1003625 0.11276359
0.18538095 0.069975965 0.16996872 0.062128495 0.09651749 0.09294638 0.10884727 0.089318976
0.17476664 0.13615532 0.10409741 0.09345357 0.14575328 0.104976386 0.08718442 0.061876528
0.15950017 0.10510872 0.24730754 0.07821285 0.14714254 0.18888766 0.21224102 0.08320902
0.11794917 0.0959726 0.16350839 0.05550835 0.10081628 0.056227196 0.08598927 0.037374668
0.21339749 0.20203981 0.20437261 0.10682672 0.08071435 0.105802715 0.1276299 0.14231633
00000000: e303 ea3d f3b9 e63d 1f4b 0c3e b6b8 c13d
00000010: 8ba4 3d3e e5ae 463d 96d9 c03d 86dd 283e
00000020: 4e22 133e 9ab2 c63d f98e 7a3d 49e1 933d
00000030: 3155 143e 9176 7a3d 0ded b23d 25f5 ed3d
00000040: aea7 823d e325 073e 2515 203e cbe1 9b3d
00000050: c8cf 0c3e 9b37 d83d db8a cd3d 99f0 e63d
00000060: 81d4 3d3e 8f4f 8f3d 480c 2e3e 737a 7e3d
00000070: f6aa c53d ac5a be3d 51eb de3d deec b63d
00000080: 07f6 323e 4d6c 0b3e 0631 d53d 9664 bf3d
00000090: 5940 153e dcfd d63d bf8d b23d 3e72 7d3d
000000a0: 0354 233e 3e43 d73d 303e 7d3e 0f2e a03d
000000b0: 89ac 163e c46b 413e b655 593e 7e69 aa3d
000000c0: 568f f13d 488d c43d be6e 273e b95c 633d
000000d0: c478 ce3d 7d4e 663d 241b b03d 2e16 193d
000000e0: df84 5a3e 86e3 4e3e 0e47 513e f8c7 da3d
000000f0: 914d a53d 18af d83d 6ab1 023e 5fbb 113e

weight f4 [64, 64, 3, 3]
-0.025069617 0.027863383 0.023426857 0.035571832 -0.031368252 -0.0051477416 -0.02109198 -0.029569421
0.03876626 -0.022048749 -0.021334477 -0.024560716 -0.024399545 0.033135515 -0.020604787 0.01740367
0.005537038 0.0011993838 0.008435539 0.0077698026 0.024998652 0.042999174 0.049950927 -0.03626382
0.040450323 -0.0006175047 -0.02126052 -0.010265033 -0.0026750965 0.004117277 -0.020837232 0.03474391
-0.02354034 -0.02802362 -0.013007375 -0.01296785 -0.02083153 0.041294765 0.0036455125 0.033395804
0.052920144 0.0036603892 -0.018660346 0.035340555 -0.0277246 -0.029986253 0.0063878447 0.00093580614
-0.0053167706 -0.0054247263 0.006679382 -0.005562525 -0.043549117 0.0030442812 -0.013368293 0.017096236
0.037823528 0.038514696 -0.017634299 0.03679126 0.009451752 0.03450719 0.04135793 -0.008603055
-0.03752093 -0.025358757 -0.014690214 0.02517142 0.009368853 -0.016015567 0.046044186 0.010505684
0.0010525085 0.022593232 0.024360877 -0.013614325 0.037421428 0.016884133 -0.04105936 -0.0374114
-0.021399751 0.015214595 -0.031541023 -0.01646415 -0.009931113 0.036311578 -0.04109216 0.02734921
-0.023692088 -0.031752642 -0.026037624 -0.012096879 0.003684309 -0.0048847347 0.014722289 -0.035827298
-0.05855625 -0.045093477 -0.02232203 -0.030013481 0.013268033 0.03872391 -0.002368206 0.0069535756
-0.03536833 -0.040380448 0.012762035 0.024659986 -0.031559296 0.032059547 -0.005647908 0.008802857
0.008281152 0.030610906 -0.018188002 0.012836753 -0.020991342 -0.004208905 -0.028996252 0.014004183
0.038131617 -0.026929766 0.0052215843 -0.0016593535 0.007569115 -0.013716828 0.005686806 -0.018642578
0.011011337 -0.020234194 -0.040960927 0.0052570007 0.01697673 0.0061469916 -0.014919024 -0.03996537
-0.033671252 -0.010445652 0.039023306 0.025097774 -0.01967904 -0.006069618 -0.023835579 0.036094252
0.015964178 0.03426489 -0.017943552 -0.017691938 -0.012457849 0.016946195 -0.007873432 -0.031306654
-0.005634946 -0.017888112 0.0045964085 0.05301338 0.03457599 -0.0380098 -0.023840558 0.017627325
-0.022678016 -0.006087348 0.037360374 0.012526194 0.0087162005 -0.00469333 0.04887961 0.037578274
-0.020805728 -0.009353378 0.014843232 -0.019506844 0.017289957 -0.03701725 0.004934735 0.029675204
-0.0361197 -0.029346298 -0.007968129 -0.055016857 0.025375204 0.01716123 -0.042923555 0.036206782
-0.0043679806 0.01996397 -0.016345926 -0.0034169715 0.016702855 -0.027070275 -0.01782393 0.03276329
0.012603127 -0.026971204 -0.0010824314 0.012736288 -0.009224443 -0.04513402 -0.003831602 0.023509163
-0.0038086178 -0.03143698 -0.012154364 -0.017536325 0.036448967 0.035559706 0.02398208 -0.029113773
-0.037183236 -0.0041736485 -0.05233556 -0.03899672 -0.011953025 0.005869155 0.016085874 -0.0239446
0.00030718948 0.03746745 0.0040039932 0.009167559 0.02821107 0.01691018 -0.030757576 0.03473689
0.01289159 0.028432682 0.0010184783 0.0051088524 0.011244307 0.017472131 0.01747098 0.03411042
-0.046570744 0.027016979 0.03957433 -0.0019561118 -0.014237606 -0.009887183 0.022007206 0.02117743
0.038734175 -0.016584149 -0.0067716255 0.0024991757 0.007999884 -0.00061294145 0.03044462 -0.019770866
-0.024031749 -0.0005964937 0.0072754226 0.002620965 -0.008683962 0.019005358 -0.0054490785 0.03719013
00000000: cc5e cdbc c041 e43c aee9 bf3c c5b3 113d
00000010: ff7b 00bd 63ae a8bb 17c9 acbc 923b f2bc
00000020: 5fc9 1e3d 949f b4bc a4c5 aebc 8e33 c9bc
00000030: 8ee1 c7bc 1bb9 073d 5fcb a8bc 2492 8e3c
00000040: 0b70 b53b a434 9d3a 3735 0a3c d499 fe3b
00000050: f9c9 cc3c e71f 303d 5899 4c3d 5f89 14bd
00000060: 3daf 253d 0ae0 21ba 8b2a aebc ab2e 28bc
00000070: ac50 2fbb 39ea 863b d8b2 aabc a14f 0e3d
00000080: acd7 c0bc ca91 e5bc e31c 55bc 1b77 54bc
00000090: e3a6 aabc b324 293d 8de9 6e3b 0aca 083d
000000a0: cbc2 583d 24e3 6f3b 95dd 98bc 42c1 103d
000000b0: b31e e3bc bba5 f5bc 2051 d13b e350 753a
000000c0: 4e38 aebb e7c1 b1bb b8de da3b d745 b6bb
000000d0: 8f60 32bd 9082 473b af06 5bbc 680d 8c3c
000000e0: d8ec 1a3d 96c1 1d3d ce75 90bc 6fb2 163d
000000f0: 85db 1a3c 6957 0d3d ef66 293d d4f3 0cbc
00000100: 8caf 19bd 2bbd cfbc 39af 70bc 4b34 ce3c
00000110: d17f 193c 1433 83bc d498 3c3d 0820 2c3c
00000120: 53f4 893a 7115 b93c 7690 c73c 9e0e 5fbc
00000130: 3647 193d 9850 8a3c dc2d 28bd b23c 19bd
00000140: 884e afbc a346 793c 2931 01bd d3df 86bc
00000150: 1bb6 22bc 73bb 143d 4150 28bd 730b e03c
00000160: e915 c2bc 0f0f 02bd db4c d5bc fd31 46bc
00000170: 7374 713b 2010 a0bb c135 713c a5bf 12bd
00000180: aed8 6fbd f0b3 38bd b1dc b6bc d5de f5bc
00000190: 2a62 593c f69c 1e3d e733 1bbb d2da e33b
000001a0: 62de 10bd f865 25bd db17 513c bd03 ca3c
000001b0: 5244 01bd df50 033d 1612 b9bb dc39 103c
000001c0: abad 073c b9c3 fa3c 01ff 94bc 3f51 523c
000001d0: 09f6 abbc dbea 89bb 8c89 edbc cd71 653c
000001e0: e62f 1c3d d09b dcbc d319 ab3b aa7e d9ba
000001f0: 5706 f83b 8cbc 60bc 6358 ba3b 52b8 98bc
00000200: e568 343c 2ec2 a5bc a5c6 27bd eb42 ac3b
00000210: c912 8b3c b46c c93b ec6e 74bc bab2 23bd
00000220: deea 09bd 3d24 2bbc e7d6 1f3d d999 cd3c
00000230: f035 a1bc a5e3 c6bb d542 c3bc 91d7 133d
00000240: 4fc7 823c 5759 0c3d 5bfe 92bc afee 90bc
00000250: 021c 4cbc bfd2 8a3c 91ff 00bc 683b 00bd
00000260: 5aa5 b8bb 178a 92bc 789d 963b 8f24 593d
00000270: 8e9f 0d3d 2ab0 1bbd 464d c3bc 2e67 903c
00000280: 3fc7 b9bc 6078 c7bb 3107 193d aa3a 4d3c
00000290: 65ce 0e3c 81ca 99bb fc35 483d adeb 193d
000002a0: c670 aabc e93e 19bc 0731 733c d1cc 9fbc
000002b0: aba3 8d3c 669f 17bd 8fb3 a13b 6a19 f33c
000002c0: 40f2 13bd a667 f0bc c18c 02bc 5b59 61bd
000002d0: a9df cf3c b595 8c3c 9cd0 2fbd 904d 143d
000002e0: 4721 8fbb 7b8b a33c e4e7 85bc 45ef 5fbb
000002f0: 6dd4 883c 7bc2 ddbc 7e03 92bc cd32 063d
00000300: 597d 4e3c b7f2 dcbc 5fe0 8dba ddab 503c
00000310: 1e22 17bc 73de 38bd 9d1b 7bbb 4a96 c03c
00000320: 019a 79bb 10c4 00bd 1923 47bc 57a8 8fbc
00000330: 834b 153d 0ea7 113d 1176 c43c 0280 eebc
00000340: 734d 18bd 1ac3 88bb d05d 56bd 06bb 1fbd
00000350: 9fd6 43bc 0a52 c03b 86c6 833c 7727 c4bc
00000360: 460e a139 7877 193d ee33 833b 8833 163c
00000370: e71a e73c 3887 8a3c 50f7 fbbc 4548 0e3d
00000380: 3f37 533c a8eb e83c 767e 853a 2968 a73b
00000390: 0b3a 383c b721 8f3c 4d1f 8f3c 5eb7 0b3d
000003a0: f7c0 3ebd b652 dd3c b118 223d 1c32 00bb
000003b0: d944 69bc dafd 21bc 7548 b43c 4a7c ad3c
000003c0: baa7 1e3d 7bdb 87bc 83e4 ddbb 36c9 233b
000003d0: f211 033c cead 20ba ff66 f93c 83f6 a1bc
000003e0: 3bde c4bc 045e 1cba ab66 ee3b 7fc4 2b3b
000003f0: 2d47 0ebc 20b1 9b3c 2f8e b2bb ae54 183d

bias f4 [64]
-0.016683944 -0.0025593063 0.045784906 -0.012216516 0.038003437 0.028003545 0.021644868 0.041122455
-0.026759887 0.036177497 -0.006053037 -0.028816562 -0.03330607 0.03818848 0.003041908 0.022437386
0.016023627 -0.032545496 -0.016001232 -0.015574234 0.026532313 -0.0065144952 0.020008508 -0.0043083895
-0.021359164 -0.009722613 -0.034040034 0.023441453 -0.019280301 -0.016845882 0.020873299 -0.02726158
0.0014658243 -0.02785264 -0.0029154941 0.018690865 0.026099613 -0.0052000117 -0.004011418 0.002016248
0.02995129 0.006696994 1.0399063e-05 -0.004385938 -0.034757428 -0.03731191 -0.014450758 -0.034229033
0.041269623 -0.032067392 0.044502907 0.030656373 -0.020511663 0.0005956339 -0.03464458 0.0125951795
-0.0095702605 0.034341816 0.012903218 -0.036900934 -0.03747384 -0.0043477407 0.003674834 0.010033769
00000000: c4ac 88bc 09ba 27bb f488 3b3d c827 48bc
00000010: 7ea9 1b3d b167 e53c 9450 b13c 0570 283d
00000020: 8d37 dbbc db2e 143d 8e58 c6bb b610 ecbc
00000030: f26b 08bd 866b 1c3d bf5a 473b 9cce b73c
00000040: fb43 833c 6d4e 05bd 0415 83bc 122b 7fbc
00000050: 4b5a d93c 8c77 d5bb e2e8 a33c 642d 8dbb
00000060: 6af9 aebc 984b 1fbc 906d 0bbd 4a08 c03c
00000070: b9f1 9dbc 6000 8abc 7bfe aa3c ad53 dfbc
00000080: e720 c03a 382b e4bc e011 3fbb 961d 993c
00000090: dbce d53c dc64 aabb 3772 83bb 0723 043b
000000a0: 685c f53c 7572 db3b a377 2e37 eab7 8fbb
000000b0: ce5d 0ebd 60d4 18bd dfc2 6cbc be33 0cbd
000000c0: 560a 293d 1959 03bd ae48 363d 1323 fb3c
000000d0: 1308 a8bc 5024 1c3a 7ae7 0dbd 035c 4e3c
000000e0: 95cc 1cbc 01aa 0c3d 0568 533c 6f25 17bd
000000f0: 2b7e 19bd 7e77 8ebb 7cd5 703b ad64 243c
